saved_models/af_detect.tflite (tflite, 540904 bytes, 22 tensors)

lstm_1/lstm_cell_1/bias f4 [256]
00000000: 4e2b ec3b fcaf 963c 4e8e 763d 7c8d 4e3c
00000010: 1a5d 513d c0e6 b53c 2acc f43c f915 fa3c
00000020: b108 013c 9dbd 0c3d 48af f03c dd1a 773c
00000030: d434 1f3d 7aa5 253d 29b1 d43c 1323 8f3c
00000040: 1c35 5f3d b325 8f3c 4d8d 163d b231 ba3c
00000050: 23a6 7f3d c654 c13b 9475 ce3c 2fd9 f33c
00000060: e9d4 073d 4a3b f33c 3eda 003d d70d 2b3d
00000070: c516 523d 89f3 4a3d 9f00 c53c 6fd0 2f3d
00000080: b600 f33c cd72 783c 53be c53c a5cf 313c
00000090: 97e5 323d 317a 0d3d f11c 323d 1b6d 173d
000000a0: 5a04 cb3c bff5 303d 8561 653c 9206 e23c
000000b0: cd2a 0a3d ba6c 493c 9301 e03c 6787 3b3d
000000c0: 9641 173d b2a7 2d3d f14d 193d 4b24 da3c
000000d0: 8198 283d 72ab 6e3d 3ce6 023d f33e 953c
000000e0: e7fd ad3c 77e9 af3c a7f4 313d 6e25 363d
000000f0: ffdd b63c 83b5 653d 8c02 123d 4f54 313d
00000100: 3fc5 803f ac0f 823f ee02 853f f8f6 803f
00000110: 14e7 843f 5f36 813f 8096 823f d398 803f
00000120: b06f 803f e357 833f b1ad 833f a9c7 813f
00000130: 0d70 843f 7c34 853f 9080 833f 7055 813f
00000140: 097c 853f 1f04 823f ec6b 833f dcf6 823f
00000150: 8199 823f a619 803f aca2 823f 772d 833f
00000160: 4cf0 803f ce25 823f a0d6 813f 475c 833f
00000170: ec6a 833f f9dd 833f 1a79 813f de33 823f
00000180: 475f 823f 2a9f 813f 0fc6 803f 1541 813f
00000190: 4317 833f 80f6 833f 1ac5 833f 49d5 813f
000001a0: f723 813f 15b5 843f 1f82 813f 3619 823f
000001b0: fd91 833f eb4d 813f 599a 823f 3ae6 823f
000001c0: 2cd7 833f 777c 853f 78e2 823f a997 823f
000001d0: aa4b 833f a0a7 813f 504a 813f 4a93 813f
000001e0: 5be0 813f daee 823f dd7d 843f 3ff2 853f
000001f0: 53f9 803f 7c2c 823f 1d2a 823f 50cb 843f
00000200: 5d05 653c d609 15bc ac23 bc3c 1855 0f3b
00000210: 6ed9 0e3c 86ee a93b a179 c83a 8e86 f5ba
00000220: 0bda aabb 5f0b 7fbc 85f9 533c afde 6c3b
00000230: 6f7d 343c f926 88bc 1acc ccbc 6aff 8e3b
00000240: 8588 f23c 3daf 033c 30b9 4a3c 7aa6 0f3c
00000250: bc0d ffba cf7d 88bc ecbf 02bc f6a1 663c
00000260: 8184 863c e96c 883c f07b c23b ea63 693b
00000270: b822 ac3b 5eab 8a3c 6435 59bc 1dfb a33c
00000280: 0a04 783c cfda e03b 8f76 87bb 7d7e ec38
00000290: 66c3 3b3c 10d4 a03b d4ce 883b cdcd 3cbc
000002a0: 2872 9f3c 1e96 62b9 96fc 063c fb14 02bc
000002b0: 9b4c 88bc 2523 82ba 358e b1bc 5623 0dbc
000002c0: 332e 39bc 5f07 e03c a9da 23bc 404a 68bc
000002d0: 77d7 133c 6493 e93b 65b1 7abc c519 583c
000002e0: 888e 803b 426a ea3c 621d bc3c 2ce8 fdbc
000002f0: 9a48 e13b 2bfd 9a3b c6a2 813c 0884 01bc
00000300: e8fa ef3b 40d9 923c 3431 7c3d c045 4b3c
00000310: 7748 6c3d 022c a63c 5fb8 f23c 6449 f23c
00000320: 4e90 8f3c e814 0b3d fa54 203d 2670 863c
00000330: a72f 233d 0121 353d d76c ee3c 21b9 8e3c
00000340: c197 663d 9c20 983c beea 2e3d f7cd c53c
00000350: 9be6 803d 8f16 a73b a4d3 cb3c 9c61 e63c
00000360: f291 023d 03c3 013d f601 063d c5d0 493d
00000370: 11d9 453d b2bb 553d 53d0 c33c 1010 2f3d
00000380: d8a0 f23c 3b17 7a3c e8e2 b53c 8cc8 333c
00000390: ea97 4a3d 21b8 053d 131b 3a3d 6eef 163d
000003a0: b2a5 cd3c daec 393d 4467 573c 8332 d83c
000003b0: df3a 0e3d 2604 4a3c 5cc9 d93c 5993 473d
000003c0: 8654 1d3d e5b1 4c3d 567b 133d 6be3 eb3c
000003d0: 1275 2e3d 17dd 553d 9f54 213d 61f8 953c
000003e0: c159 b23c 6fc7 c13c 5fc3 3e3d 8b5d 4f3d
000003f0: 4f61 b23c 8c98 793d 7093 1e3d afbb 493d
0.0072073108 0.018394463 0.060194306 0.012606975 0.05111418 0.022204757 0.02988251 0.030528056
0.007875607 0.034360517 0.029380456 0.015082088 0.03886874 0.040441014 0.025963383 0.01747278
0.05449401 0.017474031 0.03675585 0.022728775 0.0624143 0.0058999984 0.02520255 0.029766647
0.03316203 0.029691357 0.031458132 0.041761246 0.051291246 0.04954866 0.024048148 0.042923387
0.029663425 0.015164089 0.024138605 0.010852729 0.043675985 0.03454036 0.043484632 0.036969285
0.024782348 0.04320311 0.014000301 0.027591024 0.033732224 0.012293989 0.0273445 0.045783427
0.036927782 0.042396255 0.037427846 0.026628634 0.041161064 0.05826897 0.03195785 0.018218493
0.021239234 0.02147363 0.04344621 0.04446929 0.022322653 0.056081306 0.03564696 0.043293294
1.0060195 1.0161033 1.0391519 1.0075369 1.038302 1.0094718 1.0202179 1.0046638
1.0034084 1.0261196 1.0287381 1.0139056 1.0346695 1.0406642 1.0273609 1.0104198
1.0428478 1.0157508 1.026731 1.0231586 1.0203096 1.0007827 1.0205894 1.024825
1.0073333 1.0167787 1.0143623 1.0262536 1.0267005 1.0302116 1.0115082 1.0172079
1.0185326 1.0126698 1.0060443 1.0097986 1.0241474 1.0309601 1.0294526 1.0143214
1.0089101 1.0367762 1.0117835 1.0163944 1.0278927 1.0101904 1.0203353 1.022651
1.030004 1.0428609 1.0225363 1.0202533 1.0257466 1.012928 1.0100803 1.0123074
1.0146593 1.0229142 1.035091 1.0464553 1.0076088 1.0169826 1.0169102 1.0374546
0.0139783295 -0.009096583 0.022966228 0.0021870788 0.008718831 0.005185905 0.0015295037 -0.0018732117
-0.005213981 -0.015566676 0.012937908 0.0036143472 0.011016234 -0.016620146 -0.024999667 0.004363944
0.029606113 0.0080373855 0.012373254 0.008767718 -0.0019459049 -0.016661553 -0.007980328 0.0140767
0.016420605 0.016653495 0.0059351847 0.0035612532 0.0052531622 0.016927417 -0.013257358 0.020017201
0.015137682 0.0068620215 -0.0041340063 0.00011276917 0.011460161 0.0049080923 0.0041750465 -0.011523676
0.019463614 -0.00021608963 0.008238932 -0.007939572 -0.01663809 -0.0009928687 -0.021674255 -0.008614382
-0.011302519 0.027347265 -0.010000863 -0.014177859 0.009023539 0.007128166 -0.015301083 0.013189738
0.003923241 0.02861512 0.02296323 -0.030994497 0.00687511 0.004729887 0.015824687 -0.007905014
0.0073236115 0.017925858 0.06157036 0.012406766 0.057686295 0.020284656 0.02962893 0.029576011
0.017524865 0.033955485 0.03914354 0.016410898 0.039840367 0.044220928 0.029104633 0.01742226
0.056297068 0.018570237 0.042704336 0.024146063 0.062939845 0.0050991247 0.024881192 0.028122716
0.031877466 0.03168012 0.032716714 0.049271364 0.048302714 0.052180953 0.023903048 0.042739928
0.029617712 0.015264328 0.022202924 0.010973107 0.049461283 0.032646302 0.045435976 0.03684943
0.025103424 0.045391895 0.013147179 0.026391273 0.034724113 0.012330091 0.026585273 0.048724506
0.038410686 0.04997434 0.036006294 0.028794965 0.042592116 0.0522128 0.03938734 0.018306913
0.021771314 0.023654668 0.04657304 0.05062632 0.021774916 0.060936496 0.038714826 0.049251255

lstm/lstm_cell/bias f4 [512]
00000000: 8e2c 183c f77b 89b9 4c6c 803c 80c3 7f3c
00000010: fad1 cb3c b4e6 8a3c 95a6 ae3c a0a6 ca3c
00000020: 7dee ca3c 4009 c23a 4bbc f93c 3585 963c
00000030: dca0 2b3c e943 c33c 64fa d23c d753 3e3c
00000040: ef38 163d 920e 0d3c 5e67 023c 7eb1 623c
00000050: f87f 0d3c 8aed e33c f250 0c3d eff9 2a3c
00000060: 22b8 343c bd76 a63b 363c 873c a0a5 663c
00000070: 54d2 0a3d 8dfc ab3b 489d 813c 04fc 6c3b
00000080: 2be7 9b3b 499d dc3c ec5f bb3c dde0 153c
00000090: b3f8 533b add0 913c eed6 b23c b8f8 ae39
000000a0: 1539 393b 0d51 b63c f593 e83c 5041 883c
000000b0: 9427 0f3d d0ca 0b3c 3615 8c3b 0854 513c
000000c0: 2789 823d fdbd 4e3c f417 363b f83a ee3c
000000d0: ec0c 3b39 08d6 bf3c c5d7 22b9 1127 893b
000000e0: 3801 053d 0e9e ba3c 17b0 473c 797e 943c
000000f0: 031e 833b b532 0e3d 23ed d13b 5d83 b63c
00000100: bbed 7d3c 66b0 523c 969f 9e3c 849c c43b
00000110: 9695 793c 81ff 3b3c d702 093a c630 1d3c
00000120: ee44 313d 2fb2 513c 341d 903b d231 7e3b
00000130: fba7 ea3c 72f5 e33c 6f65 823c af6b 063b
00000140: 6cf4 203c 2f3d c53c aaf1 9e3c 87c1 323c
00000150: 43cb 0d3b 176e bb3c 3d8b 253c 3c35 b13b
00000160: 0a54 103c 642f 753c 9cfb 753d bd3d c73b
00000170: 911b 763c fa9c 8c3b 3b2d 903c 5f2b 5a3c
00000180: 545b 563c 53e4 d03b 23d0 463b 862a 333b
00000190: fcbe 5a3b bd49 233c e38c 933c b01f 193c
000001a0: f4ea 353c a986 e83c 989b 813c ee3b 9a3b
000001b0: 9e78 bc3b 8790 b93b fd68 9a3c c63d 8339
000001c0: 0780 6e3c 849a 123d 7dde 4e3c 572d 983c
000001d0: 0e26 bd3b f9a2 9c3c 1628 203b 85b7 073c
000001e0: 84df db3b 7b03 b83c ae93 2f3c 1d75 aa3c
000001f0: 8401 ba3b 3f9c 423d 6f69 6e3c 3eb8 743b
00000200: bfb6 803f 5be9 7f3f 5874 813f 1ed3 813f
00000210: bdd0 813f a6ac 823f 2a54 823f fe68 823f
00000220: 0dba 823f b11f 803f 1885 843f ad03 823f
00000230: c9d0 803f 3574 823f ac94 823f c22d 813f
00000240: b1e1 823f 9ae0 803f 20be 803f d45c 813f
00000250: 75db 803f 4fa0 833f d9cb 823f c727 813f
00000260: e4c1 813f 6f9a 803f 6032 813f 7d69 813f
00000270: fd32 833f 2461 803f 71fd 803f 887c 803f
00000280: b8ad 803f 17bb 823f 2577 823f 16e1 803f
00000290: 0977 803f cbdf 813f b76a 813f 0833 803f
000002a0: 6f56 803f ce18 823f bded 823f 5e7d 813f
000002b0: eda3 833f 07da 803f 0d8d 803f 1e24 813f
000002c0: 7b7b 843f 62e6 803f 454f 803f c264 823f
000002d0: 9e0a 803f fe61 823f a21e 803f 4f78 803f
000002e0: db95 813f be6d 823f 2c6f 803f ead9 813f
000002f0: cd92 803f a2b6 853f bebf 803f 2f89 813f
00000300: 4d54 813f 7b43 813f d8bc 823f 189c 803f
00000310: d8b5 813f eb3e 813f c314 803f 963d 813f
00000320: 113e 843f 4797 813f f280 803f 8710 803f
00000330: 60e3 813f 0ddc 823f 1299 813f d43a 803f
00000340: d711 813f c7ad 823f 850d 823f f10a 813f
00000350: e43a 803f 92a2 823f a9eb 803f d6bf 803f
00000360: 34db 803f 875d 813f 9bb3 823f dbb1 803f
00000370: e794 813f 0083 803f c812 823f 9a7a 813f
00000380: 2a70 813f 3fbc 803f 9d4a 803f 4159 803f
00000390: 8d75 803f ba3c 803f 1e4f 823f 55ce 803f
000003a0: 3b16 813f f1cd 823f b2f4 803f c073 803f
000003b0: a4e4 803f 3dd6 803f 590b 833f a329 803f
000003c0: ff87 813f 5564 833f c13d 813f 97ff 813f
000003d0: 11aa 803f 8f90 813f 8870 803f c8b2 803f
000003e0: e5b5 803f ac8c 823f eee3 803f a759 813f
000003f0: 11b8 803f df41 843f 8344 813f 7a24 803f
0.009287966 -0.00026223037 0.01567664 0.015610576 0.024880398 0.016955711 0.021319667 0.024737656
0.024771923 0.0014803782 0.030485293 0.018374065 0.010475364 0.023836093 0.025754161 0.011616669
0.03667539 0.008609431 0.007959215 0.013836263 0.008636467 0.027823228 0.034256883 0.010435565
0.011030229 0.0050800727 0.016508203 0.014077574 0.03389199 0.0052486123 0.015822068 0.0036160955
0.004757782 0.026930468 0.022872888 0.00914785 0.0032344281 0.0177997 0.021831002 0.00033373176
0.0028262783 0.022255445 0.028390864 0.016632706 0.034949854 0.008532241 0.0042749895 0.012776382
0.06373816 0.012618539 0.0027785273 0.029080853 0.00017838523 0.023417488 -0.00015529904 0.0041855653
0.032471865 0.022780444 0.012187979 0.018126713 0.0040013804 0.034716327 0.0064064427 0.022279436
0.015498574 0.0128594395 0.019363206 0.0060001034 0.015233418 0.011474491 0.00052265584 0.009594148
0.043278627 0.01279883 0.0043980125 0.003878702 0.028644552 0.027826998 0.015917508 0.0020510962
0.0098239 0.024077026 0.019402344 0.010910398 0.0021636046 0.022879643 0.010103998 0.0054079574
0.008809099 0.014964912 0.060054407 0.006080358 0.015021221 0.004291174 0.017599693 0.013316005
0.013083298 0.0063748746 0.0030336461 0.0027338578 0.0033377996 0.009966311 0.018011516 0.009345934
0.0111033805 0.028384523 0.015821263 0.004706851 0.0057516834 0.005662981 0.01884889 0.00025032292
0.014556891 0.03579189 0.0126262875 0.018576307 0.0057723587 0.01912068 0.0024437956 0.008283501
0.0067099947 0.022462597 0.010716362 0.020807797 0.00567645 0.04751229 0.0145515045 0.0037341262
1.005577 0.9996545 1.011363 1.0142553 1.0141827 1.0208938 1.0181935 1.0188291
1.0213028 1.0009671 1.0353117 1.0157372 1.0063716 1.0191714 1.0201621 1.0092089
1.0225126 1.0068543 1.0058022 1.0106454 1.0066973 1.0283297 1.0218459 1.0090264
1.0137296 1.0047129 1.0093498 1.0110317 1.0249935 1.0029645 1.0077344 1.0038004
1.0053015 1.0213345 1.019261 1.0068691 1.0036327 1.0146421 1.0110692 1.0015574
1.0026377 1.016382 1.0228802 1.0116384 1.0284401 1.0066537 1.0043045 1.0089147
1.0350183 1.0070307 1.0024191 1.0186999 1.000324 1.0186155 1.0009348 1.0036715
1.0123857 1.0189741 1.0033927 1.0144627 1.00448 1.044636 1.0058515 1.011999
1.0103852 1.0098718 1.021388 1.0047636 1.0133619 1.0097326 1.0006336 1.009692
1.0331441 1.0124291 1.0039351 1.0005044 1.0147514 1.0223404 1.0124838 1.0017953
1.0083569 1.0209283 1.0160376 1.0081464 1.0017972 1.0205863 1.0071918 1.0058544
1.0066895 1.0106667 1.0211061 1.0054277 1.0123566 1.0039978 1.0161982 1.011554
1.0112355 1.0057448 1.002277 1.0027238 1.0035874 1.0018532 1.0180395 1.0062968
1.0084909 1.0219098 1.0074675 1.0035324 1.0069776 1.006538 1.0237838 1.0012707
1.0119628 1.0264994 1.0096971 1.0156125 1.00519 1.0122241 1.0034342 1.005456
1.005551 1.019918 1.0069559 1.0105485 1.0056173 1.0332602 1.0099033 1.0011132

dense_1/bias f4 [2]
00000000: 9476 63bc 9076 633c
-0.013883252 0.013883248

dense/bias f4 [10]
00000000: d484 593d 7f85 273b 0db5 c53b 3783 e53c
00000010: 8286 66bc 5b6a 803d 698f 993c 55c0 7d3c
00000020: 7a99 2c3d 5abb ad3c
0.05310519 0.0025561748 0.006033546 0.02801667 -0.014070155 0.06270286 0.018745141 0.01548775
0.042138554 0.0212075

conv2d_4/bias f4 [20]
00000000: 3c9b 4f3c 5a8f 8dbc 3f72 713c 4ab6 503b
00000010: d333 1eba 5c3d 163b a6a1 f5ba 75bd 263b
00000020: ee60 c03b 4b66 2f3c 3709 a03a fb07 be39
00000030: d421 543b 4480 c93b 8e73 4b3a 829e 7e3b
00000040: 6373 2a3c d7ee ecb8 ddef 07bb 0554 f3bb
0.012671288 -0.01728027 0.014736711 0.0031846934 -0.0006034944 0.0022924757 -0.0018740192 0.0025442515
0.00587093 0.010705541 0.0012209777 0.0003624557 0.0032368796 0.0061493237 0.00077610544 0.0038851802
0.010403487 -0.00011297844 -0.0020742335 -0.0074257874

conv2d_3/bias f4 [20]
00000000: 605b f93b 6cdf 863b a172 13bb 5dbe 663c
00000010: dab6 3b3c d64b 80ba 14dc 013c 1c93 353c
00000020: 7c2d 283b 80b7 883b 8730 2e3b b681 81bc
00000030: 3000 e13b 83af 7fbc 7386 473b 3e00 20bb
00000040: 0a18 cb3b 743d bc3a dba1 f3bb 1b5d 0e3b
0.0076097697 0.0041159894 -0.0022498744 0.014083472 0.011457169 -0.0009788226 0.007926006 0.011082437
0.0025661876 0.0041722655 0.0026579218 -0.015808921 0.0068664774 -0.01560581 0.0030445128 -0.0024414207
0.006197934 0.0014361576 -0.007435066 0.0021722976

conv2d_2/bias f4 [10]
00000000: f7b6 ea3c 0e20 7d3c 6fb2 ecbb e2b1 2a3c
00000010: 9ebc b43b 5482 bebb 7165 143c 0ad7 333c
00000020: 6c6b a43b 9465 f53c
0.028651698 0.015449537 -0.0072234194 0.010418387 0.005515649 -0.005813876 0.009057389 0.010976562
0.0050176885 0.029955663

conv2d_1/bias f4 [5]
00000000: eb98 0a3c e0ea 4c3c 6d96 c7bb 607a d33c
00000010: 30af efbb
0.00845931 0.01250717 -0.00609093 0.025815189 -0.007314585

conv2d/bias f4 [3]
00000000: 9596 8f3c e8f2 383c dae5 433d
0.017527858 0.011288382 0.047826625

sequential/dense/MatMul f4 [10, 64]
00000000: 5a57 ba3d 7c95 823d 26df 0d3e 7277 e2bd
00000010: c8f5 11be 4205 5dbc 3e19 bb3d afe0 e53d
00000020: 2143 44bd 7891 77bc 1131 25be 3472 8dbe
00000030: 5016 853d 5771 0fbe e988 9ebe 189b 163c
00000040: 50df 68be 1e22 6a3e 0cfd bb3e 8661 e1bd
00000050: 1d68 d8be 7847 5fbb 6806 3f3e 7ced 3c3d
00000060: 7616 e23d e026 3d3e 78c1 6b3e 9194 7f3e
00000070: 117f 853d 8a23 b03e 2ac5 74be f7a0 833c
00000080: 3877 0ebe b626 68be 2582 7bbe 20aa 5ebe
00000090: 9bf2 b33e e52c 893e 919f fa3c 024c e5be
000000a0: cd46 973e d6a4 ce3d ae05 093e 477b 95be
000000b0: c41c 9d3d 13a1 623d 7dcc 1a3e 285e a8be
000000c0: 49bc 58be d862 c2bd d004 a1be 6d69 2fbe
000000d0: d26c 21bd 3289 b93e fb8a a7be df9a 5a3e
000000e0: dae9 59bd 7a1d 08bd 0d5f cd3b 61b2 fabd
000000f0: 537e 8dbd 3c3d b23e ddcd 0b3d 081f 0d3e
00000100: c299 43be 4199 943e cca0 db3b 57c0 78be
00000110: ce60 ac3d 1c00 1fbe cbe9 5a3e 79c7 2ebe
00000120: 3109 4e3e 49ab 5bbe 2662 09be 7575 5c3e
00000130: ddfe 63be 5477 7abe eaa5 9b3d 52f3 7fbd
00000140: d97d 6a3e b897 0a3c 6181 a4be fbdc 7a3e
00000150: 8097 56bd ba73 e53d 2949 c93d 65a7 4b3e
00000160: 152e 283e 4ac9 013e b8b1 9bbe 0034 30be
00000170: 4471 0cbe 1167 1b3e d6f7 853e df1d 463d
00000180: bb5a 22be 4d37 6d3e 9669 3cbd 9966 143e
00000190: 27d7 40be 7353 043e c676 33be 575f f73c
000001a0: 1c27 0fbe 8784 8e3e 8820 043b f4b4 a03e
000001b0: f3bf b13d 4ddb 87be a2b0 523e b931 853d
000001c0: d52e 863e 3a8c 9f3d 6407 f1bd 4bf4 4ebe
000001d0: da39 37be b74e 1a3e c407 233e a410 09be
000001e0: 3eeb 0dbe 931c 59bd 704f c5bd c9ad abbd
000001f0: 0974 88be a46e 38be 4f5b 71be 7b0f c83d
00000200: 95ff 4dbd 9944 3f3e e1f3 9fbe 5dcd 2a3d
00000210: 45aa 79be 3233 d5bb 53b5 8fbe 9422 be3d
00000220: a609 64bd d9ed 47be b8e3 8c3e 11cd 223e
00000230: 958f 033d 2ba8 d83c 1f27 8e3e d3e0 8ebe
00000240: 17ea a43e 8fc5 dbbd 3611 143d e1cc 873e
00000250: f1da bf3e f4b8 733e 378f 5d3d b7e0 3d3e
00000260: 8d80 26be d31b 2b3e 8fbe 04be ffc0 11be
00000270: ce95 bf3c a5a2 533e 5653 06be d1fe 9bbe
00000280: a178 37be f824 75be 2c44 733e 7120 b93d
00000290: 7722 2dbd 1ed6 333e 3d05 853d 4221 01be
000002a0: 963d 72bd 75fd ee3d 10c4 26be 2945 06be
000002b0: 50ee 91bd e8c8 91be 0d7e 76ba d288 44be
000002c0: 5c53 4cbe 9bac 6a3d f6a9 bcbd 0c01 5b3e
000002d0: 650e ae3d a0e3 84bd fbfb d4bd a29a 03bd
000002e0: 1efa 7abd 7f05 edbd f1b3 95be ff62 d5bd
000002f0: 0bee 8e3d 6dcc 22bd 435c 85be b716 9dbd
00000300: 213b 47bd f054 763e 83e9 a23e e588 89be
00000310: dd76 973e 71bd 523c 1437 093e b3d4 07be
00000320: 844d 5cbd 6234 c2be 0436 eebd c625 3fbe
00000330: 8843 493e f0c5 c9bd 0415 24be da63 b23d
00000340: a4cf 2f3c a9e1 753e 6e82 113e 20ae a53e
00000350: b4d1 13be 020a 6d3c 2a05 5b3e fcbd 453c
00000360: 35fd f23e fff1 b73e 21c0 2f3e 5d7a 923e
00000370: edef ffbd de50 7f3e 2b68 7c3c 4cf8 1e3e
00000380: e5b4 963e c9b7 0bbe d146 bc3c 20c9 f93d
00000390: 10c9 b53e f339 923e 946b 1a3e 208c d1be
000003a0: 3cf1 9b3e b022 2cbd a2dd b2bc b8dd e23d
000003b0: 6e83 93be 14bc 84bd 920a 1dbe 43b8 10be
000003c0: 1091 15be 431d 393e 7f58 97be 97e1 83be
000003d0: 2bbd 253e d18c 883e 48eb a7be 6e27 84bd
000003e0: 7e7a 073e 9d1a 4a3e cd8c 913e 76a6 9bbe
000003f0: ecaa 48be 3997 523e ca97 613e 5077 bfbe
0.09098692 0.06376168 0.13854656 -0.11057939 -0.14253914 -0.013490023 0.09135674 0.112244956
-0.04791558 -0.015110366 -0.16131999 -0.27626193 0.064983964 -0.1400808 -0.3096383 0.009192251
-0.22741437 0.22864577 0.36716497 -0.11004929 -0.42266932 -0.0034069698 0.18654788 0.04612492
0.1103944 0.18471861 0.23023021 0.24959017 0.065183766 0.34402114 -0.23903337 0.016067965
-0.13912666 -0.22671017 -0.24561365 -0.21744585 0.3514603 0.26792064 0.030593665 -0.44784552
0.29546204 0.10090034 0.13381073 -0.29195616 0.07671502 0.055329394 0.15117069 -0.32884336
-0.21165575 -0.09491509 -0.31448984 -0.1713006 -0.03941042 0.36237484 -0.3272322 0.21348141
-0.053201534 -0.033231236 0.0062674345 -0.12241054 -0.0690886 0.34812343 0.034131873 0.13781369
-0.19101623 0.29023173 0.006702518 -0.24292122 0.084169015 -0.15527385 0.21378247 -0.1706828
0.20120694 -0.21452059 -0.13416347 0.21529181 -0.22265191 -0.24459583 0.07600005 -0.062487908
0.2289957 0.008459024 -0.32129958 0.2449836 -0.052390575 0.11203714 0.09828407 0.19888075
0.16423829 0.12674442 -0.30409026 -0.17207336 -0.13715082 0.15176035 0.26165646 0.04836833
-0.15854923 0.23165627 -0.045999132 0.14492263 -0.18832074 0.12922458 -0.17525777 0.030196829
-0.13979763 0.27835485 0.0020160992 0.31388056 0.086791895 -0.265345 0.20575193 0.065036245
0.26207605 0.07790418 -0.11768988 -0.20210378 -0.17893162 0.1506909 0.15920931 -0.13385254
-0.13859269 -0.053005766 -0.09634292 -0.08382756 -0.26651028 -0.18010956 -0.23569988 0.09768578
-0.05029257 0.18678512 -0.31240752 0.041699756 -0.24381359 -0.006506347 -0.28068027 0.09283939
-0.055673264 -0.19524325 0.27517486 0.15898539 0.032119352 0.026447376 0.27764222 -0.27905902
0.32209846 -0.10731041 0.036149226 0.26523498 0.37471727 0.23801023 0.05409166 0.18542753
-0.16259976 0.16709833 -0.12963317 -0.14233778 0.023386862 0.20667513 -0.13117728 -0.30467847
-0.1791711 -0.23939884 0.23756474 0.09039391 -0.042269196 0.17562148 0.0649514 -0.12610343
-0.059140764 0.11669437 -0.1628573 -0.1311232 -0.071255326 -0.28473592 -0.00094029383 -0.19192818
-0.19953674 0.057293516 -0.09212105 0.21387118 0.08498839 -0.064887285 -0.10399624 -0.03212989
-0.061273687 -0.11573314 -0.29238847 -0.10419273 0.06978997 -0.039745737 -0.26046953 -0.07670348
-0.048640374 0.24055839 0.3181878 -0.26862255 0.29582873 0.012862549 0.13399917 -0.13264732
-0.053784862 -0.3793059 -0.116313964 -0.18666753 0.19654667 -0.09852207 -0.16023642 0.087104514
0.010730658 0.24011864 0.14209911 0.3235941 -0.14435464 0.014467718 0.21388689 0.012069222
0.47458807 0.35926816 0.17163135 0.2860898 -0.12496934 0.24933192 0.015405695 0.15524405
0.29434887 -0.13644327 0.022982987 0.12196565 0.3550496 0.28559837 0.150801 -0.4092722
0.30457485 -0.042025268 -0.021834198 0.11077446 -0.2881121 -0.064811856 -0.15336064 -0.1413279
-0.14606118 0.18077569 -0.29559705 -0.2575805 0.16185443 0.26669934 -0.32796693 -0.06452833
0.13230321 0.19736715 0.28427735 -0.30400437 -0.19596452 0.205655 0.22030559 -0.37395716

sequential/dense_1/MatMul f4 [2, 10]
00000000: 29b3 bebe 60c5 863d 6238 97be bac9 4cbf
00000010: fef5 303f de01 a93e 15a6 3dbf 2e73 393f
00000020: 8c69 3d3f bebd 273f eca6 9ebd 9874 7bbd
00000030: 891f 04bf 0ef9 37be 0ae8 0f3f 75f4 093f
00000040: 456f dabe e620 e3be 6939 d73e 4f3c f2be
-0.37246063 0.06580615 -0.29535204 -0.7999531 0.69125354 0.33009237 -0.74081546 0.72441375
0.73989177 0.655239 -0.077466816 -0.06139049 -0.5161062 -0.179661 0.5621344 0.53888637
-0.42663017 -0.44361037 0.42035988 -0.47311637

sequential/conv2d/Conv2D f4 [3, 6, 1, 1]
00000000: f35c 46be a233 803c e759 483e 041e e13d
00000010: 3605 f5bd 473e dbbe f111 a33e a9c7 e23e
00000020: 639e 073f 227a 20be f9ec 2ebe 3c07 b4be
00000030: f1a3 ecbd a4ae fbbe 2d89 a33e 71ae 99be
00000040: f211 e4be cc67 85bd
-0.19371395 0.01564962 0.19565545 0.10992053 -0.119638845 -0.4282095 0.31849626 0.44292954
0.52976054 -0.1567159 -0.17082585 -0.3516177 -0.11554707 -0.49156678 0.31940594 -0.300159
-0.4454494 -0.06513938

sequential/conv2d_1/Conv2D f4 [5, 5, 1, 3]
00000000: ddc4 a53d 6806 493e aba0 81be dd12 903e
00000010: 2188 bdbe a976 72be 24b1 6a3e e09d febd
00000020: a4bb 643e 8f7c 3cbd 2312 4c3c ccd7 44be
00000030: fa13 b83d 6e0e 683e 30bc 7d3e 2853 a9be
00000040: e548 b93e 428d 18be 911f 1fbe 4c9f 8abe
00000050: b522 9e3e 8ae3 8b3d ccb9 6b3e 002e 5ebd
00000060: 951b 9dbe ce8c 9abe 9233 343e 799b 06bd
00000070: eaea 333e c8d3 69be 847f 12be 334f 8fbe
00000080: 52c4 30be 8a8b 703e 78fb a93e 7e31 b63e
00000090: 99f5 8fbe 7c9e 833e f43a c63e f6fe 04be
000000a0: 0730 b83e 1dd1 c13e d2a0 f3bd dae2 c6bd
000000b0: ef25 c83e 0408 47be da11 543e f92d 81be
000000c0: 0009 9a3e 7d3d d33e 367d 8c3e 7b29 cfbd
000000d0: 30a9 8c3d b10a 76be bd46 903d ec9e 8c3e
000000e0: 74a5 99bd a238 333d 523c 313e 8d77 3a3d
000000f0: c11c acbe 0a54 2bbe fa77 6d3e 6ba2 8abe
00000100: 7122 d23d cdd9 42bd 4b03 853e 94f2 c1be
00000110: f82b fc3d d76b b4bd c9ba 6dbe 2fa3 b3be
00000120: 62bd 23be 212c c93d 5e92 9abd
0.08094189 0.1963135 -0.25317892 0.28139392 -0.3701792 -0.23678078 0.22919136 -0.12432456
0.22337204 -0.046017226 0.012455496 -0.19222945 0.08988185 0.22661754 0.24778819 -0.33071256
0.36188427 -0.14897636 -0.15539385 -0.2707466 0.30885854 0.06830509 0.23020095 -0.054243088
-0.30685106 -0.3018555 0.17597798 -0.032863114 0.17570081 -0.22834694 -0.14306456 -0.27990112
-0.1726239 0.2349073 0.33199668 0.35584635 -0.28117064 0.2570685 0.38716853 -0.12987885
0.35974142 0.37854853 -0.118959084 -0.09711237 0.3909144 -0.19436651 0.20709935 -0.25230387
0.3008499 0.4125785 0.27439278 -0.10115334 0.068682075 -0.24027516 0.07044742 0.27464998
-0.07502261 0.04375518 0.17308167 0.04552417 -0.33615687 -0.16731277 0.23190299 -0.2707704
0.102604754 -0.047570992 0.25979075 -0.37880385 0.12313074 -0.08809631 -0.23215784 -0.35085437
-0.15990213 0.0982287 -0.075474486

sequential/conv2d_2/Conv2D f4 [10, 4, 1, 5]
00000000: f34e 2c3d a6f8 1d3e 70d9 643e f3ab f0bd
00000010: 2475 76be 93df ffbd 44b1 2abe 50fd 4ebd
00000020: c684 e4bb fdba 353e 0be2 b4bd 0854 9b3e
00000030: 6ee0 38be 74c6 34be cb86 26be d356 75be
00000040: 05f8 a7be 1490 06be 0218 febd 0713 bb3d
00000050: a98a 1a3e 4468 603e 8c49 45bd f618 a6be
00000060: bebe 4abe da9f d33d f1d2 4a3e d364 08be
00000070: 71b5 653d 6b88 253e ed2f 733d 1847 7cbe
00000080: f983 e2bd bcfa 3a3c e9ea 37be 860c 92be
00000090: 8ca9 143c aa8e 15be 8106 053e 5f7c f03d
000000a0: e4fe f5bd 9884 543e d84d 8d3e 4c35 0dbd
000000b0: b3ff 9fbe 6c82 8cbe 0f71 833e 2999 dbbd
000000c0: bce7 883e 0f3c d5bd 45b9 07be c8e8 14be
000000d0: 1370 cbbc 2396 fbbb d1f8 313e 075d b4be
000000e0: accc 54be a894 41be 538a 1dbc c9e8 b63c
000000f0: 4157 833b 85f6 81be d3a4 afbd 4d65 ccbd
00000100: 432a 8b3e db56 2bbd 455c 10be 62f7 4bbe
00000110: d9b5 493e 87d8 55be 958b a53e ead3 8e3e
00000120: 42ab bb3d e726 783e c0e3 ea3c dc70 3d3e
00000130: 9c7a 353e cbda cd3d cdd5 8a3d 8c42 e53d
00000140: 8825 1fbd 78e5 58be 07ab 48be a786 933e
00000150: 6c64 1e3e 3c0b 0abe 8b34 a23c 630c 6a3d
00000160: 0c66 b6bd 4e05 273d 5003 1b3e 6362 c03d
00000170: edae 40ba d39d f93d 24f8 d53d e00a 503e
00000180: 5178 32be b22e 0c3e 436b 0ebe 0266 843e
00000190: b4fe 89be 5149 b0be 1eb8 433e 5410 39bd
000001a0: a9d4 d03d c520 503e 9b65 8abe a857 39be
000001b0: 1d2d 183e 2ba1 263e d781 9f3e 5bd9 253e
000001c0: 1bfc 233e f55d 13be 7c6e 59be 24b9 763e
000001d0: c882 25be 8583 55bd 65e7 d73d 5bf8 4ebe
000001e0: b95d 0e3e 000e 4fbc bae4 2a3a 9fd2 813e
000001f0: fd50 49be f891 23bd 5694 71bd cf5b b23d
00000200: 48f4 1b3e 0fd4 8ebe 969c 87be d038 f2bd
00000210: b753 433e 2099 a9bd a606 39be cdaf 4e3d
00000220: db1c 783d 5e02 62be 0bcc 763e 058a 623e
00000230: 88e6 03be 7941 573e 72a2 afbd 07dd 88bc
00000240: 6b7b a03d 8b88 12be 77e7 313d 3184 003e
00000250: cdb7 303e c04e febc 9d60 c73d d3bd dbbd
00000260: 1003 8abe 409d 21bd b64f 93bd 27d8 6c3e
00000270: 73c7 c4bd 9b9a a03e d03b bf3e e4ed b0bd
00000280: a00b 083e 2258 eabd 984a aabd 31cc 7abc
00000290: 93aa 13be 5c6c 983e eb1a 07be ca26 903e
000002a0: 1664 703e fb53 c0bd da99 a13e 9f71 f9bc
000002b0: 7ef6 0a3e 159a 4ebe bad5 4abe 5c2e 983e
000002c0: 241c 6ebe 8584 283e 5611 84bd 3fb9 89be
000002d0: 0a53 cb3d 8137 9e3e c3e7 84be 8112 35be
000002e0: aeeb ec3d 8895 4d3e 0abb 3e3d 40eb b43b
000002f0: d937 48be 1849 92be ad83 75be c123 b53d
00000300: fbb0 59be 5d1e c9bc 6ae9 9abc 3b7f 76bd
00000310: 5020 88bd 17ee 94bd 84bd 2d3d ea25 553e
0.04206748 0.15426883 0.22348571 -0.11751547 -0.24068123 -0.12493815 -0.16669184 -0.050534546
-0.0069738356 0.17747112 -0.08832177 0.30337548 -0.18054363 -0.17653829 -0.16262357 -0.23958902
-0.3280641 -0.13140899 -0.12406923 0.091344886 0.15091957 0.21914774 -0.048165843 -0.3244092
-0.19799325 0.10333224 0.1980703 -0.13319711 0.05608124 0.1616532 0.059371877 -0.24636495
-0.11060328 0.011412319 -0.17960705 -0.2852518 0.009073626 -0.14605203 0.12990762 0.11742472
-0.12011507 0.20753706 0.27598453 -0.034474656 -0.3124977 -0.27443254 0.25672194 -0.10722572
0.267393 -0.10411846 -0.13254268 -0.14541924 -0.024833715 -0.00767781 0.17380072 -0.35227224
-0.20781201 -0.18904364 -0.009615499 0.022327797 0.004008204 -0.25383392 -0.085763596 -0.09980259
0.2718068 -0.04183088 -0.14097698 -0.19918588 0.19698276 -0.2088338 0.32333055 0.27896053
0.09163524 0.2423359 0.028673053 0.18500084 0.17722553 0.10051497 0.067790605 0.111943334
-0.038854152 -0.21181285 -0.19596492 0.2881367 0.15467995 -0.13480848 0.019800445 0.05714072
-0.08906183 0.040776543 0.15137982 0.09393766 -0.0007350285 0.12188306 0.1044772 0.20316648
-0.1742871 0.13689688 -0.13908105 0.25859076 -0.26952136 -0.34430936 0.19113204 -0.045181587
0.10196812 0.20325 -0.27030644 -0.18099844 0.1486096 0.16272418 0.31153747 0.16196196
0.1601414 -0.1439131 -0.21233553 0.24094063 -0.1616317 -0.05212738 0.10542182 -0.20211928
0.1390294 -0.012637615 0.0006519068 0.25356004 -0.19659801 -0.03993413 -0.058979355 0.08708917
0.15229905 -0.27896163 -0.26486653 -0.118272424 0.19074903 -0.082811594 -0.18068942 0.050460625
0.060574394 -0.22071216 0.24101274 0.22122963 -0.1288091 0.2102107 -0.08575906 -0.016706957
0.0783604 -0.143099 0.043433633 0.12550427 0.17257614 -0.03104341 0.097352244 -0.107295655
-0.26955462 -0.039456606 -0.07192938 0.2312933 -0.096083544 0.31367955 0.3735032 -0.08639124
0.13285685 -0.11442591 -0.08315009 -0.015307472 -0.14420538 0.29770172 -0.13193862 0.28154594
0.2347568 -0.09391018 0.31562692 -0.030449687 0.13570592 -0.20175965 -0.19808093 0.2972287
-0.23252922 0.16456802 -0.06448619 -0.26899144 0.09927948 0.3090172 -0.2595807 -0.1768284
0.1156839 0.20076573 0.046565093 0.005521208 -0.19552554 -0.2857139 -0.23976012 0.0884471
-0.21258919 -0.024550611 -0.018910129 -0.06017993 -0.06646788 -0.072719745 0.042417064 0.20815244

sequential/conv2d_3/Conv2D f4 [20, 4, 1, 10]
00000000: a382 04be 1c5e 453e d000 c73c 1935 21bd
00000010: dab0 413e fe08 74bd f2a3 c33d cfe4 6cbe
00000020: 704e 15be 92b6 02bd c40a 5abd d333 e8bd
00000030: 2c0a 2d3e 4406 be3d 1250 c1bc 24f2 353e
00000040: 82dc 4bbe 60a3 533e 5873 4bbe 6bc3 ddbc
00000050: c442 dd3d 0863 0abe a66f 013e dbf7 87bd
00000060: ed33 0ebe 3e17 2d3d de34 d43d a739 94bc
00000070: 10ed 10be de24 873e 4de6 5fbe 738d 943e
00000080: 1b8e 2cbe 968a 34be 2d06 edbd e3ad 99bd
00000090: 9ee6 e1bc 4027 463e 7e7b 403e b67e 31bd
000000a0: 84a1 7cbc a62a e8bb 4051 d2bd 858e 43bd
000000b0: 1825 95bd 740e 673e ecf2 fbbd 64fe e93c
000000c0: b9dc 57be a393 22be f59c 27be 33e0 083e
000000d0: 8ffe e73d 5968 173e 8109 a53b 5808 023e
000000e0: 044d 0e3e e2bd 6b3e de05 2f39 da46 ef3b
000000f0: b2e1 c7bc 2890 213d 794a 79bd ec9a 003e
00000100: 3c97 95bd 00fc 01be f783 ff3d b8c8 e53c
00000110: b036 163e 8c9b 80be 4afd a6bd d5ef 223d
00000120: 8af0 be3d ca56 293e 4413 12be 9b8c 32be
00000130: 3f9b 523e f80b 2f3e 0c06 5a3e 751e 37be
00000140: 5223 08be 395f d3bd f723 153e 50c3 91bd
00000150: bf52 5b3e d86c b43c 84af 613e c2e1 bdbd
00000160: be75 ddbd c563 59bd 24f7 0ebd ec41 ad3d
00000170: a526 a63d fdac 6fbd 6cfb 9dbb ec2c 173d
00000180: c812 ea3d 9e58 c0bd 4fd2 8cbd d4f1 013e
00000190: 1f1f 183e 3de0 2bbe 4088 5ebd eee4 963d
000001a0: 729a 453e 8553 71be fa99 56bc 2784 40be
000001b0: 4a97 51bc 1c83 323d e966 7c3e 2ec3 5c3e
000001c0: 1637 14bd 1ee7 f13d a688 443e 133e 083e
000001d0: 4097 ed3c ce0f a8bc bce4 42bd 9b5c 293e
000001e0: 2bb1 653e 556f 99bc 4eb3 d3bd 382c f8bd
000001f0: e7c2 f0bd ccb2 bfbd 224c f8bd 095c 3dbe
00000200: 63b6 1a3b 9e9e 163e cd2a 78be 0b31 cabd
00000210: cd9e e1bc 6bfe 90bd 49d0 d7bd 16dd 163e
00000220: 6b6c 083e c74e 3b3e 6beb dabd 6727 21be
00000230: 1ca9 53be 0b17 903d 543f e4bc 4851 173d
00000240: eb8a 953d ca76 783e b72e 32bd ad3b 6b3e
00000250: 7368 f5bd bfb2 9fbe f186 20be 0d67 013e
00000260: e6e9 0ebc ca1b d13c 25ba 69bc c216 873d
00000270: 5103 0cbe 2316 40be 3b64 3ebe 7e3a 7bbe
00000280: b7bc 3bbe c162 723d 6bc9 af3d 820f 93bd
00000290: 198e 003d 2c6b 583e d753 38be 9a4f d63d
000002a0: 1371 3d3e c93d c53d 9f0f 823d db75 2dbd
000002b0: 6925 1dbe cda8 a43c bee7 12be bda4 b1bd
000002c0: 73b2 70be a277 6abe 5f34 573e 25e2 5abe
000002d0: b6ee 323e f9ea 1b3e 0aa4 413e a279 3d3e
000002e0: f519 1e3e c31c 093e ef89 7dbd 3be3 063d
000002f0: 65b7 2fbe 1d68 ffbd 46a1 a0bd b106 e03d
00000300: 8454 2abe 7711 4f3e c796 67be 04d8 f33d
00000310: 7914 623e 42e2 733d 93e4 1c3e d7df 7f3e
00000320: b1f4 7cbd e121 1abe 49f6 243e 43ef 4c3e
00000330: 16ad 503e 2619 9e3d a7aa 1cbd a516 fb3c
00000340: bcf0 793d 19bd e83d 97da 383c 180a 02be
00000350: af63 42be 138b f2ba f734 323d 2d9a 4f3e
00000360: e1b8 d43d 735d a5bd 70db 9dbd 3ee5 3bbd
00000370: 15df d43b 3c01 543e 3f31 5b3e ca77 e53b
00000380: 34dc 2e3e 7949 0cbe 00a7 43bc 4fd6 533e
00000390: fa97 48be 659a 45bc 6fef 0dbd f9a1 193e
000003a0: f0f3 0f3e b8cc 22bd ba31 de3d c97a 923d
000003b0: 492b 253d 210b e03d 0640 1e3e 1a88 6e3b
000003c0: 7a8a 283e 5521 393e 5369 18be 8656 59be
000003d0: 7706 76be c190 9abd 0573 75bd a6e5 8f3b
000003e0: 5b76 07be 7952 463e 55f9 4dbe ba4b 3ebe
000003f0: 16d5 4abd f3a4 a93d 8914 0abe cf25 14be
-0.12940459 0.19274181 0.02429238 -0.03935728 0.1891512 -0.059578888 0.095527545 -0.23134159
-0.14580703 -0.031912394 -0.053232923 -0.1133801 0.16898412 0.09278539 -0.02359775 0.1776815
-0.19908336 0.20667791 -0.19868219 -0.027070722 0.1080375 -0.1351434 0.12640247 -0.066390716
-0.13886996 0.042258494 0.10361646 -0.018093897 -0.14152932 0.26395315 -0.21865197 0.29014167
-0.16851084 -0.17630991 -0.115734436 -0.075038694 -0.027575787 0.1935091 0.18797109 -0.04333373
-0.015419368 -0.007085162 -0.102694035 -0.04774334 -0.07282466 0.22564107 -0.12302193 0.028563686
-0.21080293 -0.15876631 -0.16368468 0.13366775 0.1132785 0.14785899 0.0050365333 0.12698495
0.13896567 0.23021653 0.00016691486 0.0073021473 -0.024399612 0.03944412 -0.06086204 0.12559098
-0.07304236 -0.12693787 0.12476342 0.028049812 0.14669299 -0.25118673 -0.0815378 0.039779503
0.09323223 0.16537014 -0.14265162 -0.17436449 0.20567034 0.1709441 0.21291369 -0.17882712
-0.13294724 -0.10320897 0.14564501 -0.07117331 0.21418284 0.022024557 0.2203961 -0.092715755
-0.10813473 -0.053073663 -0.03490366 0.08459839 0.081128396 -0.058514584 -0.0048212316 0.036908075
0.114293635 -0.093919024 -0.06876051 0.12689906 0.14855622 -0.16784759 -0.054329157 0.073678836
0.19297197 -0.23567016 -0.013098234 -0.18800412 -0.012792418 0.043582067 0.24648632 0.2155883
-0.036185347 0.1181166 0.19192752 0.1330493 0.029002786 -0.020515349 -0.04758142 0.16539232
0.22430865 -0.018729845 -0.10336934 -0.12117809 -0.11755925 -0.09360275 -0.12123896 -0.1849214
0.0023607246 0.14708945 -0.24235077 -0.098726355 -0.027541542 -0.070797764 -0.10537774 0.14732775
0.13322608 0.1829177 -0.10689434 -0.15737687 -0.20669979 0.07035645 -0.027862228 0.03694275
0.07301887 0.24264064 -0.043501582 0.22971983 -0.11982813 -0.3119106 -0.15676476 0.12636967
-0.008722758 0.025525946 -0.014265572 0.065961376 -0.1367314 -0.18758444 -0.18592922 -0.24534032
-0.18333708 0.05917621 0.08583339 -0.07180692 0.031385515 0.21134633 -0.18000732 0.104644015
0.18500166 0.09630925 0.06350636 -0.042348724 -0.15346302 0.020100022 -0.14346215 -0.086739995
-0.23505573 -0.22897199 0.21016072 -0.2137533 0.17473873 0.15226354 0.18910232 0.1850343
0.1543959 0.13389878 -0.06189912 0.032931548 -0.17159803 -0.1247103 -0.078432605 0.10938776
-0.16633803 0.20221506 -0.2261611 0.11906436 0.22078122 0.05954195 0.15321569 0.24987732
-0.061756793 -0.15051986 0.16109575 0.20013146 0.20378527 0.077196404 -0.038248684 0.030650446
0.061020598 0.113641925 0.011282585 -0.12699163 -0.18983339 -0.0018504582 0.043507542 0.20273657
0.10386825 -0.08074465 -0.0770787 -0.04587292 0.00649632 0.20703596 0.21405505 0.0070028054
0.17076188 -0.13699903 -0.011941671 0.20687221 -0.19589224 -0.012060736 -0.03465217 0.15003194
0.14057899 -0.039746016 0.10849328 0.07152326 0.040324483 0.10939623 0.1545411 0.003639704
0.16459075 0.18079121 -0.14883928 -0.21224412 -0.24025904 -0.07547141 -0.059924144 0.00439139
-0.13228743 0.19367398 -0.20114644 -0.18583575 -0.04951962 0.08283415 -0.13484396 -0.14467548

sequential/conv2d_4/Conv2D f4 [20, 4, 1, 20]
00000000: d769 42be 6340 10be 1208 e13d b5b6 a43d
00000010: 80a0 113c e7c7 003e 983c 10bd 860d 8cbd
00000020: a043 b1bd dcce 2fbc 0781 62bd f179 4bbe
00000030: 7d24 283d 610d 12be 5d00 05be 6cb9 083c
00000040: 55db 8bbd 59c2 51be fe44 9f3c 216a 543d
00000050: 578f de3d 66f6 c63c 2af3 a83d fbb1 1bbd
00000060: 9018 9dbc b28a 1d3d 95d1 4cbd 317d f2bd
00000070: 662c 5b3d 5bda cc3d 7900 dabd 0d89 43be
00000080: 23ef edbc 98a2 1c3e b70a 893d f9cd b43d
00000090: c129 1a3e 046f 143e fce3 cc3d 2bb7 2b3e
000000a0: f16c 003e 0e73 053b 3116 feba a39a 913d
000000b0: 3db9 153e 8c93 123e a61a b7bd c670 5dbd
000000c0: 6f2a 1abe 542d cebd 5832 e8bc 767b 2fbe
000000d0: d6e1 f7bb 3757 7a3c ca18 09be 945c 1c3d
000000e0: 8cb6 303b e555 19bc a5a1 f6bd a54b 04bd
000000f0: ef5e 22be 9c32 aabc 4b74 13b9 2755 27be
00000100: ff41 f6bd 76fc 3e3c 5e7b 09bd 1e63 f2bc
00000110: ee6c f83c a267 0fbe f30e cabc 8709 cabd
00000120: b449 14bd f334 44be d640 9ebc cee7 653c
00000130: 6516 aabd dc40 e23d e00d f2bd 5dd6 52bd
00000140: f6df 6abe 228d 453d 3056 1c3e 3ca3 09be
00000150: a9cc 303e cde7 433e ab29 133e 6cce d9bd
00000160: 941e dc3d 2e5f f3bd 3649 52bd a0ce 0f3b
00000170: 2c3c 3fbe 5f73 053e ddd0 f4bd 7e07 923d
00000180: f9aa 41bb 5042 0e3e e918 2bbd 6443 c5bc
00000190: a2b4 86bd af62 77bd ff27 f03d 5c3e d2bd
000001a0: 3fcd 27bd 496e d5bd adde c23c f78d 20be
000001b0: dfe8 3d3e 773e 5c3d 3615 423e 6261 21bb
000001c0: c238 65bd c423 7e3d bd79 273e 39fe babd
000001d0: 56c0 04bc d80d babd 2403 b0bd b5b4 f3bd
000001e0: c9fb c4bd f831 9abd d983 92bd 766d f23c
000001f0: 931a 983d efe1 a83d 42bd 643d 3a99 ef3d
00000200: f3a9 6dbe 5638 f13d f21b 00be ff10 e93d
00000210: 41fe 21be 46d5 2cbd 278b 813d 7b0f 3ebd
00000220: 195c 933d d237 68be 573c 2a3c 764a 99bd
00000230: 76d1 723d 97ca 35bd b63c 74bd 6244 36be
00000240: a38a 82bd 89b0 9cbd 5154 99bd cb60 e93d
00000250: efd2 d1bd 222b 123e c427 c83c 23ec f73d
00000260: a020 ebbb 22c7 77bd 488a 463d 791c e93d
00000270: 31eb 8ebd 1b2d 5dbe 3219 1bbe dc3f 3fbe
00000280: 4aae 8f3d e0c7 d5bc dd2f f8bb 2983 5e3d
00000290: 93ee f13c dc3e 62bb 78b6 333d 9392 3e3e
000002a0: a5ac 433e e567 503e 8487 0ebd 01bf e93d
000002b0: a23d 25bd 8112 853d 7627 17be f2a0 b6bd
000002c0: 3609 e4bd d767 71be cd62 b9bd 9b9b 87bc
000002d0: 2bee 163a 9999 1b3e 25d6 8b3d 8970 eb3b
000002e0: cad4 dfbd 49b4 c43d 1e3b 3abd bf0a a33c
000002f0: 5a2b dfbd a68b 6bbc f80c a7bc 043b 293e
00000300: 4b6b 28bd 7022 1cbe 2a25 a93d 66aa 2fbe
00000310: b54a fabc f5ec 683b 25b3 9ebd 368d f03d
00000320: 24b4 3fbc 74d9 00be 419b 203d ebbf 07be
00000330: 589f 613d 0ba8 28be 8a2b 9abd 9161 88bb
00000340: 0388 94bb f293 99bd b6f6 073e b17f 503e
00000350: 55b5 f33d 2364 63be e532 febd c1d0 69be
00000360: 57cd d43d 69ad 02be 2231 1c3d 7da5 553e
00000370: fd4b 0cbe ed53 1dbe 381e cabd 0aaa 08be
00000380: 23a8 22be 0dad d739 0fe7 a5bd 0220 c53b
00000390: 1f46 983d 3ad4 93bd 6d52 52be de15 50bb
000003a0: 9d90 16be 18f6 913c b20b 38be 448f 1c3e
000003b0: 2df5 c43c a5f3 85be 6637 9fbd 005f abbd
000003c0: 63e4 e33c 1126 2cbd 50b6 953d 63c8 023d
000003d0: dbc3 e6bb 5957 2dbe fd06 3f3e 39a8 91bc
000003e0: 325c 513d d3ed ee3d c41b 953d 2d38 edbd
000003f0: 8031 7dbd 5c27 39be ce5f 0d3e 8678 1b3e
-0.18985687 -0.14087062 0.109878674 0.08042661 0.008888364 0.12576257 -0.035214037 -0.06838517
-0.086554766 -0.010730471 -0.05529883 -0.19870736 0.041050423 -0.14262916 -0.1298842 0.008344989
-0.06828944 -0.20484294 0.019442078 0.051859025 0.10867184 0.024287414 0.08249505 -0.038011532
-0.019176751 0.03846235 -0.05000456 -0.118402846 0.05350914 0.100025855 -0.106446214 -0.1909525
-0.029044693 0.152964 0.06691497 0.08828349 0.1505499 0.14495474 0.10004422 0.16769092
0.12541558 0.0020362767 -0.0019385276 0.07109573 0.14621444 0.14314097 -0.0894063 -0.054062627
-0.1505525 -0.100672394 -0.028344318 -0.1713694 -0.0075647635 0.015279583 -0.13388363 0.038174227
0.0026964275 -0.009358858 -0.1204255 -0.032298703 -0.15856527 -0.020776086 -0.00014062335 -0.16341077
-0.120243065 0.011656871 -0.033564918 -0.029588278 0.03032538 -0.14004377 -0.024665331 -0.098650984
-0.0362031 -0.19160824 -0.019318026 0.014032317 -0.08305053 0.11047527 -0.11819053 -0.051473964
-0.22936997 0.048230298 0.15267253 -0.13441175 0.17265572 0.19131394 0.14371364 -0.10635075
0.1074802 -0.118833885 -0.05133935 0.0021943226 -0.18675297 0.13032292 -0.119539 0.07130335
-0.002955137 0.13892484 -0.041771803 -0.024079986 -0.06577422 -0.060396846 0.11726379 -0.102658
-0.040967222 -0.10421426 0.02378782 -0.15679155 0.18545865 0.05377051 0.18953404 -0.0024624695
-0.05596233 0.062045828 0.16355033 -0.091305204 -0.008102497 -0.09084672 -0.08594349 -0.118997015
-0.09618337 -0.07529062 -0.07154054 0.02959321 0.07426944 0.082462184 0.055844553 0.116991475
-0.23209362 0.11778323 -0.1251066 0.11380195 -0.15819646 -0.04219558 0.06325369 -0.046401482
0.071953006 -0.22677544 0.010390363 -0.074849054 0.05928179 -0.044382658 -0.05962821 -0.17799523
-0.06374099 -0.07650859 -0.07486785 0.11395415 -0.102453105 0.14274266 0.024433024 0.121055864
-0.00717552 -0.060492642 0.04847172 0.11382384 -0.06978453 -0.21599238 -0.1514633 -0.18676704
0.07015665 -0.026096284 -0.007574065 0.054324303 0.029532706 -0.003452233 0.043875188 0.18610601
0.19108827 0.20352133 -0.034797207 0.11413384 -0.04034198 0.0649767 -0.14761147 -0.08917417
-0.11134569 -0.23574768 -0.09052048 -0.01655369 0.00057575357 0.15195312 0.06827954 0.007185046
-0.10929258 0.09604699 -0.045466535 0.019902585 -0.108969405 -0.0143765565 -0.020391926 0.16526419
-0.041117948 -0.15247512 0.082590416 -0.17154846 -0.030553201 0.0035541628 -0.07749013 0.11745684
-0.011700664 -0.12582952 0.03921056 -0.13256805 0.055083603 -0.16470353 -0.07527836 -0.0041620214
-0.0045328154 -0.074989215 0.13277707 0.2036121 0.11899821 -0.22206168 -0.12412051 -0.2283354
0.10390728 -0.12761463 0.038132794 0.2086391 -0.13700862 -0.15364046 -0.09869045 -0.13346115
-0.15884452 0.00041136928 -0.081007116 0.0060157785 0.074352495 -0.072182134 -0.20539255 -0.0031751315
-0.14703603 0.017817542 -0.17973211 0.15289026 0.02404269 -0.2616245 -0.07774238 -0.08367729
0.027818864 -0.04202849 0.07310164 0.031929385 -0.0070423908 -0.16927852 0.1865501 -0.01778041
0.051113315 0.11666455 0.072806865 -0.1158298 -0.061814785 -0.1808142 0.13806078 0.15182695

lstm/lstm_cell/bias1 f4 [512]
00000000: 8e2c 183c f77b 89b9 4c6c 803c 80c3 7f3c
00000010: fad1 cb3c b4e6 8a3c 95a6 ae3c a0a6 ca3c
00000020: 7dee ca3c 4009 c23a 4bbc f93c 3585 963c
00000030: dca0 2b3c e943 c33c 64fa d23c d753 3e3c
00000040: ef38 163d 920e 0d3c 5e67 023c 7eb1 623c
00000050: f87f 0d3c 8aed e33c f250 0c3d eff9 2a3c
00000060: 22b8 343c bd76 a63b 363c 873c a0a5 663c
00000070: 54d2 0a3d 8dfc ab3b 489d 813c 04fc 6c3b
00000080: 2be7 9b3b 499d dc3c ec5f bb3c dde0 153c
00000090: b3f8 533b add0 913c eed6 b23c b8f8 ae39
000000a0: 1539 393b 0d51 b63c f593 e83c 5041 883c
000000b0: 9427 0f3d d0ca 0b3c 3615 8c3b 0854 513c
000000c0: 2789 823d fdbd 4e3c f417 363b f83a ee3c
000000d0: ec0c 3b39 08d6 bf3c c5d7 22b9 1127 893b
000000e0: 3801 053d 0e9e ba3c 17b0 473c 797e 943c
000000f0: 031e 833b b532 0e3d 23ed d13b 5d83 b63c
00000100: bbed 7d3c 66b0 523c 969f 9e3c 849c c43b
00000110: 9695 793c 81ff 3b3c d702 093a c630 1d3c
00000120: ee44 313d 2fb2 513c 341d 903b d231 7e3b
00000130: fba7 ea3c 72f5 e33c 6f65 823c af6b 063b
00000140: 6cf4 203c 2f3d c53c aaf1 9e3c 87c1 323c
00000150: 43cb 0d3b 176e bb3c 3d8b 253c 3c35 b13b
00000160: 0a54 103c 642f 753c 9cfb 753d bd3d c73b
00000170: 911b 763c fa9c 8c3b 3b2d 903c 5f2b 5a3c
00000180: 545b 563c 53e4 d03b 23d0 463b 862a 333b
00000190: fcbe 5a3b bd49 233c e38c 933c b01f 193c
000001a0: f4ea 353c a986 e83c 989b 813c ee3b 9a3b
000001b0: 9e78 bc3b 8790 b93b fd68 9a3c c63d 8339
000001c0: 0780 6e3c 849a 123d 7dde 4e3c 572d 983c
000001d0: 0e26 bd3b f9a2 9c3c 1628 203b 85b7 073c
000001e0: 84df db3b 7b03 b83c ae93 2f3c 1d75 aa3c
000001f0: 8401 ba3b 3f9c 423d 6f69 6e3c 3eb8 743b
00000200: bfb6 803f 5be9 7f3f 5874 813f 1ed3 813f
00000210: bdd0 813f a6ac 823f 2a54 823f fe68 823f
00000220: 0dba 823f b11f 803f 1885 843f ad03 823f
00000230: c9d0 803f 3574 823f ac94 823f c22d 813f
00000240: b1e1 823f 9ae0 803f 20be 803f d45c 813f
00000250: 75db 803f 4fa0 833f d9cb 823f c727 813f
00000260: e4c1 813f 6f9a 803f 6032 813f 7d69 813f
00000270: fd32 833f 2461 803f 71fd 803f 887c 803f
00000280: b8ad 803f 17bb 823f 2577 823f 16e1 803f
00000290: 0977 803f cbdf 813f b76a 813f 0833 803f
000002a0: 6f56 803f ce18 823f bded 823f 5e7d 813f
000002b0: eda3 833f 07da 803f 0d8d 803f 1e24 813f
000002c0: 7b7b 843f 62e6 803f 454f 803f c264 823f
000002d0: 9e0a 803f fe61 823f a21e 803f 4f78 803f
000002e0: db95 813f be6d 823f 2c6f 803f ead9 813f
000002f0: cd92 803f a2b6 853f bebf 803f 2f89 813f
00000300: 4d54 813f 7b43 813f d8bc 823f 189c 803f
00000310: d8b5 813f eb3e 813f c314 803f 963d 813f
00000320: 113e 843f 4797 813f f280 803f 8710 803f
00000330: 60e3 813f 0ddc 823f 1299 813f d43a 803f
00000340: d711 813f c7ad 823f 850d 823f f10a 813f
00000350: e43a 803f 92a2 823f a9eb 803f d6bf 803f
00000360: 34db 803f 875d 813f 9bb3 823f dbb1 803f
00000370: e794 813f 0083 803f c812 823f 9a7a 813f
00000380: 2a70 813f 3fbc 803f 9d4a 803f 4159 803f
00000390: 8d75 803f ba3c 803f 1e4f 823f 55ce 803f
000003a0: 3b16 813f f1cd 823f b2f4 803f c073 803f
000003b0: a4e4 803f 3dd6 803f 590b 833f a329 803f
000003c0: ff87 813f 5564 833f c13d 813f 97ff 813f
000003d0: 11aa 803f 8f90 813f 8870 803f c8b2 803f
000003e0: e5b5 803f ac8c 823f eee3 803f a759 813f
000003f0: 11b8 803f df41 843f 8344 813f 7a24 803f
0.009287966 -0.00026223037 0.01567664 0.015610576 0.024880398 0.016955711 0.021319667 0.024737656
0.024771923 0.0014803782 0.030485293 0.018374065 0.010475364 0.023836093 0.025754161 0.011616669
0.03667539 0.008609431 0.007959215 0.013836263 0.008636467 0.027823228 0.034256883 0.010435565
0.011030229 0.0050800727 0.016508203 0.014077574 0.03389199 0.0052486123 0.015822068 0.0036160955
0.004757782 0.026930468 0.022872888 0.00914785 0.0032344281 0.0177997 0.021831002 0.00033373176
0.0028262783 0.022255445 0.028390864 0.016632706 0.034949854 0.008532241 0.0042749895 0.012776382
0.06373816 0.012618539 0.0027785273 0.029080853 0.00017838523 0.023417488 -0.00015529904 0.0041855653
0.032471865 0.022780444 0.012187979 0.018126713 0.0040013804 0.034716327 0.0064064427 0.022279436
0.015498574 0.0128594395 0.019363206 0.0060001034 0.015233418 0.011474491 0.00052265584 0.009594148
0.043278627 0.01279883 0.0043980125 0.003878702 0.028644552 0.027826998 0.015917508 0.0020510962
0.0098239 0.024077026 0.019402344 0.010910398 0.0021636046 0.022879643 0.010103998 0.0054079574
0.008809099 0.014964912 0.060054407 0.006080358 0.015021221 0.004291174 0.017599693 0.013316005
0.013083298 0.0063748746 0.0030336461 0.0027338578 0.0033377996 0.009966311 0.018011516 0.009345934
0.0111033805 0.028384523 0.015821263 0.004706851 0.0057516834 0.005662981 0.01884889 0.00025032292
0.014556891 0.03579189 0.0126262875 0.018576307 0.0057723587 0.01912068 0.0024437956 0.008283501
0.0067099947 0.022462597 0.010716362 0.020807797 0.00567645 0.04751229 0.0145515045 0.0037341262
1.005577 0.9996545 1.011363 1.0142553 1.0141827 1.0208938 1.0181935 1.0188291
1.0213028 1.0009671 1.0353117 1.0157372 1.0063716 1.0191714 1.0201621 1.0092089
1.0225126 1.0068543 1.0058022 1.0106454 1.0066973 1.0283297 1.0218459 1.0090264
1.0137296 1.0047129 1.0093498 1.0110317 1.0249935 1.0029645 1.0077344 1.0038004
1.0053015 1.0213345 1.019261 1.0068691 1.0036327 1.0146421 1.0110692 1.0015574
1.0026377 1.016382 1.0228802 1.0116384 1.0284401 1.0066537 1.0043045 1.0089147
1.0350183 1.0070307 1.0024191 1.0186999 1.000324 1.0186155 1.0009348 1.0036715
1.0123857 1.0189741 1.0033927 1.0144627 1.00448 1.044636 1.0058515 1.011999
1.0103852 1.0098718 1.021388 1.0047636 1.0133619 1.0097326 1.0006336 1.009692
1.0331441 1.0124291 1.0039351 1.0005044 1.0147514 1.0223404 1.0124838 1.0017953
1.0083569 1.0209283 1.0160376 1.0081464 1.0017972 1.0205863 1.0071918 1.0058544
1.0066895 1.0106667 1.0211061 1.0054277 1.0123566 1.0039978 1.0161982 1.011554
1.0112355 1.0057448 1.002277 1.0027238 1.0035874 1.0018532 1.0180395 1.0062968
1.0084909 1.0219098 1.0074675 1.0035324 1.0069776 1.006538 1.0237838 1.0012707
1.0119628 1.0264994 1.0096971 1.0156125 1.00519 1.0122241 1.0034342 1.005456
1.005551 1.019918 1.0069559 1.0105485 1.0056173 1.0332602 1.0099033 1.0011132
